2023-07-04 01:47:36 Deepr(
  (embeddings): ModuleDict(
    (conditions): Embedding(4494, 128, padding_idx=0)
    (procedures): Embedding(1415, 128, padding_idx=0)
  )
  (linear_layers): ModuleDict()
  (cnn): ModuleDict(
    (conditions): DeeprLayer(
      (conv): Conv1d(128, 128, kernel_size=(3,), stride=(1,))
    )
    (procedures): DeeprLayer(
      (conv): Conv1d(128, 128, kernel_size=(3,), stride=(1,))
    )
  )
  (fc): Linear(in_features=256, out_features=351, bias=True)
)
2023-07-04 01:47:36 Metrics: ['accuracy', 'f1_macro', 'roc_auc_samples', 'jaccard_weighted', 'pr_auc_weighted']
2023-07-04 01:47:36 Device: cuda
2023-07-04 01:47:36 
2023-07-04 01:47:36 Training:
2023-07-04 01:47:36 Batch size: 32
2023-07-04 01:47:36 Optimizer: <class 'torch.optim.adam.Adam'>
2023-07-04 01:47:36 Optimizer params: {'lr': 0.001}
2023-07-04 01:47:36 Weight decay: 0.0
…
2023-07-04 01:51:06 jaccard_weighted: 0.4235
2023-07-04 01:51:06 pr_auc_weighted: 0.5587
2023-07-04 01:51:06 loss: 0.2250
2023-07-04 01:51:06 
2023-07-04 01:51:09 --- Train epoch-49, step-17600 ---
2023-07-04 01:51:09 loss: 0.0453
2023-07-04 01:51:10 --- Eval epoch-49, step-17600 ---
2023-07-04 01:51:10 accuracy: 0.0000
2023-07-04 01:51:10 f1_macro: 0.1085
2023-07-04 01:51:10 roc_auc_samples: 0.9407
2023-07-04 01:51:10 jaccard_weighted: 0.4226
2023-07-04 01:51:10 pr_auc_weighted: 0.5585
2023-07-04 01:51:10 loss: 0.2282
2023-07-04 01:51:10 Loaded best model
2023-07-04 01:51:16 MICRON(
  (embeddings): ModuleDict(
    (conditions): Embedding(4493, 128, padding_idx=0)
    (procedures): Embedding(1414, 128, padding_idx=0)
  )
  (micron): MICRONLayer(
    (health_net): Linear(in_features=256, out_features=128, bias=True)
    (prescription_net): Linear(in_features=128, out_features=128, bias=True)
    (fc): Linear(in_features=128, out_features=351, bias=True)
    (bce_loss_fn): BCEWithLogitsLoss()
  )
)
2023-07-04 01:51:16 Metrics: ['accuracy', 'f1_macro', 'roc_auc_samples', 'jaccard_weighted', 'pr_auc_weighted']
2023-07-04 01:51:16 Device: cuda
2023-07-04 01:51:16 
2023-07-04 01:51:16 Training:
2023-07-04 01:51:16 Batch size: 32
2023-07-04 01:51:16 Optimizer: <class 'torch.optim.adam.Adam'>
2023-07-04 01:51:16 Optimizer params: {'lr': 0.001}
…
