2023-07-06 07:51:23 Deepr(
  (embeddings): ModuleDict(
    (conditions): Embedding(4032, 128, padding_idx=0)
    (procedures): Embedding(1277, 128, padding_idx=0)
  )
  (linear_layers): ModuleDict()
  (cnn): ModuleDict(
    (conditions): DeeprLayer(
      (conv): Conv1d(128, 128, kernel_size=(3,), stride=(1,))
    )
    (procedures): DeeprLayer(
      (conv): Conv1d(128, 128, kernel_size=(3,), stride=(1,))
    )
  )
  (fc): Linear(in_features=256, out_features=1, bias=True)
)
2023-07-06 07:51:23 Metrics: ['accuracy', 'pr_auc', 'roc_auc', 'f1']
2023-07-06 07:51:23 Device: cuda
2023-07-06 07:51:23 
2023-07-06 07:51:23 Training:
2023-07-06 07:51:23 Batch size: 32
2023-07-06 07:51:23 Optimizer: <class 'torch.optim.adam.Adam'>
2023-07-06 07:51:23 Optimizer params: {'lr': 0.001}
2023-07-06 07:51:23 Weight decay: 0.0
2023-07-06 07:51:23 Max grad norm: None
…
2023-07-06 07:52:07 accuracy: 0.9238
2023-07-06 07:52:07 pr_auc: 0.1158
2023-07-06 07:52:07 roc_auc: 0.5568
2023-07-06 07:52:07 f1: 0.0278
2023-07-06 07:52:07 loss: 0.7038
2023-07-06 07:52:07 
2023-07-06 07:52:08 --- Train epoch-19, step-4880 ---
2023-07-06 07:52:08 loss: 0.0001
2023-07-06 07:52:09 --- Eval epoch-19, step-4880 ---
2023-07-06 07:52:09 accuracy: 0.9238
2023-07-06 07:52:09 pr_auc: 0.1168
2023-07-06 07:52:09 roc_auc: 0.5576
2023-07-06 07:52:09 f1: 0.0278
2023-07-06 07:52:09 loss: 0.7109
2023-07-06 07:52:09 Loaded best model
2023-07-06 07:52:16 Deepr(
  (embeddings): ModuleDict(
    (conditions): Embedding(6665, 128, padding_idx=0)
    (procedures): Embedding(1981, 128, padding_idx=0)
  )
  (linear_layers): ModuleDict()
  (cnn): ModuleDict(
    (conditions): DeeprLayer(
      (conv): Conv1d(128, 128, kernel_size=(3,), stride=(1,))
    )
    (procedures): DeeprLayer(
      (conv): Conv1d(128, 128, kernel_size=(3,), stride=(1,))
    )
  )
  (fc): Linear(in_features=256, out_features=10, bias=True)
)
2023-07-06 07:52:16 Metrics: ['accuracy', 'f1_macro', 'roc_auc_weighted_ovo']
2023-07-06 07:52:16 Device: cuda
2023-07-06 07:52:16 
2023-07-06 07:52:16 Training:
2023-07-06 07:52:16 Batch size: 32
2023-07-06 07:52:16 Optimizer: <class 'torch.optim.adam.Adam'>
2023-07-06 07:52:16 Optimizer params: {'lr': 0.001}
2023-07-06 07:52:16 Weight decay: 0.0
2023-07-06 07:52:16 Max grad norm: None
…
