2023-07-05 15:43:30 StageNet(
  (embeddings): ModuleDict(
    (conditions): Embedding(4031, 128, padding_idx=0)
    (procedures): Embedding(1276, 128, padding_idx=0)
  )
  (linear_layers): ModuleDict()
  (stagenet): ModuleDict(
    (conditions): StageNetLayer(
      (kernel): Linear(in_features=129, out_features=1542, bias=True)
      (recurrent_kernel): Linear(in_features=385, out_features=1542, bias=True)
      (nn_scale): Linear(in_features=384, out_features=64, bias=True)
      (nn_rescale): Linear(in_features=64, out_features=384, bias=True)
      (nn_conv): Conv1d(384, 384, kernel_size=(10,), stride=(1,))
      (nn_dropconnect): Dropout(p=0.3, inplace=False)
      (nn_dropconnect_r): Dropout(p=0.3, inplace=False)
      (nn_dropout): Dropout(p=0.3, inplace=False)
      (nn_dropres): Dropout(p=0.3, inplace=False)
    )
    (procedures): StageNetLayer(
      (kernel): Linear(in_features=129, out_features=1542, bias=True)
      (recurrent_kernel): Linear(in_features=385, out_features=1542, bias=True)
      (nn_scale): Linear(in_features=384, out_features=64, bias=True)
      (nn_rescale): Linear(in_features=64, out_features=384, bias=True)
      (nn_conv): Conv1d(384, 384, kernel_size=(10,), stride=(1,))
      (nn_dropconnect): Dropout(p=0.3, inplace=False)
      (nn_dropconnect_r): Dropout(p=0.3, inplace=False)
      (nn_dropout): Dropout(p=0.3, inplace=False)
      (nn_dropres): Dropout(p=0.3, inplace=False)
    )
  )
  (fc): Linear(in_features=768, out_features=1, bias=True)
)
2023-07-05 15:43:30 Metrics: ['accuracy', 'pr_auc', 'roc_auc', 'f1']
2023-07-05 15:43:30 Device: cuda
2023-07-05 15:43:30 
2023-07-05 15:43:30 Training:
2023-07-05 15:43:30 Batch size: 32
2023-07-05 15:43:30 Optimizer: <class 'torch.optim.adam.Adam'>
2023-07-05 15:43:30 Optimizer params: {'lr': 0.001}
2023-07-05 15:43:30 Weight decay: 0.0
2023-07-05 15:43:30 Max grad norm: None
…
2023-07-05 15:47:56 accuracy: 0.9169
2023-07-05 15:47:56 pr_auc: 0.1108
2023-07-05 15:47:56 roc_auc: 0.6156
2023-07-05 15:47:56 f1: 0.1290
2023-07-05 15:47:56 loss: 1.1861
2023-07-05 15:47:56 
2023-07-05 15:48:02 --- Train epoch-19, step-4900 ---
2023-07-05 15:48:02 loss: 0.0116
2023-07-05 15:48:03 --- Eval epoch-19, step-4900 ---
2023-07-05 15:48:03 accuracy: 0.9149
2023-07-05 15:48:03 pr_auc: 0.1194
2023-07-05 15:48:03 roc_auc: 0.6077
2023-07-05 15:48:03 f1: 0.1443
2023-07-05 15:48:03 loss: 1.2326
2023-07-05 15:48:03 Loaded best model
2023-07-05 15:48:10 StageNet(
  (embeddings): ModuleDict(
    (conditions): Embedding(6664, 128, padding_idx=0)
    (procedures): Embedding(1980, 128, padding_idx=0)
  )
  (linear_layers): ModuleDict()
  (stagenet): ModuleDict(
    (conditions): StageNetLayer(
      (kernel): Linear(in_features=129, out_features=1542, bias=True)
      (recurrent_kernel): Linear(in_features=385, out_features=1542, bias=True)
      (nn_scale): Linear(in_features=384, out_features=64, bias=True)
      (nn_rescale): Linear(in_features=64, out_features=384, bias=True)
      (nn_conv): Conv1d(384, 384, kernel_size=(10,), stride=(1,))
      (nn_dropconnect): Dropout(p=0.3, inplace=False)
      (nn_dropconnect_r): Dropout(p=0.3, inplace=False)
      (nn_dropout): Dropout(p=0.3, inplace=False)
      (nn_dropres): Dropout(p=0.3, inplace=False)
    )
    (procedures): StageNetLayer(
      (kernel): Linear(in_features=129, out_features=1542, bias=True)
      (recurrent_kernel): Linear(in_features=385, out_features=1542, bias=True)
      (nn_scale): Linear(in_features=384, out_features=64, bias=True)
      (nn_rescale): Linear(in_features=64, out_features=384, bias=True)
      (nn_conv): Conv1d(384, 384, kernel_size=(10,), stride=(1,))
      (nn_dropconnect): Dropout(p=0.3, inplace=False)
      (nn_dropconnect_r): Dropout(p=0.3, inplace=False)
      (nn_dropout): Dropout(p=0.3, inplace=False)
      (nn_dropres): Dropout(p=0.3, inplace=False)
    )
  )
  (fc): Linear(in_features=768, out_features=10, bias=True)
)
2023-07-05 15:48:10 Metrics: ['accuracy', 'f1_macro', 'roc_auc_weighted_ovo']
2023-07-05 15:48:10 Device: cuda
2023-07-05 15:48:10 
2023-07-05 15:48:10 Training:
2023-07-05 15:48:10 Batch size: 32
2023-07-05 15:48:10 Optimizer: <class 'torch.optim.adam.Adam'>
2023-07-05 15:48:10 Optimizer params: {'lr': 0.001}
2023-07-05 15:48:10 Weight decay: 0.0
2023-07-05 15:48:10 Max grad norm: None
…
2023-07-05 15:57:49 --- Eval epoch-18, step-21052 ---
2023-07-05 15:57:49 accuracy: 0.3529
2023-07-05 15:57:49 f1_macro: 0.2626
2023-07-05 15:57:49 roc_auc_weighted_ovo: 0.7548
2023-07-05 15:57:49 loss: 3.2995
2023-07-05 15:57:49 
2023-07-05 15:58:16 --- Train epoch-19, step-22160 ---
2023-07-05 15:58:16 loss: 0.6987
2023-07-05 15:58:18 --- Eval epoch-19, step-22160 ---
2023-07-05 15:58:18 accuracy: 0.3601
2023-07-05 15:58:18 f1_macro: 0.2673
2023-07-05 15:58:18 roc_auc_weighted_ovo: 0.7549
2023-07-05 15:58:18 loss: 3.4262
2023-07-05 15:58:18 Loaded best model
2023-07-05 15:58:20 AdaCare(
  (embeddings): ModuleDict(
    (conditions): Embedding(4031, 128, padding_idx=0)
    (procedures): Embedding(1276, 128, padding_idx=0)
  )
  (linear_layers): ModuleDict()
  (adacare): ModuleDict(
    (conditions): AdaCareLayer(
      (nn_conv1): CausalConv1d(128, 64, kernel_size=(2,), stride=(1,), padding=(1,))
      (nn_conv3): CausalConv1d(128, 64, kernel_size=(2,), stride=(1,), padding=(3,), dilation=(3,))
      (nn_conv5): CausalConv1d(128, 64, kernel_size=(2,), stride=(1,), padding=(5,), dilation=(5,))
      (nn_convse): Recalibration(
        (avg_pool): AdaptiveAvgPool1d(output_size=1)
        (nn_c): Linear(in_features=192, out_features=48, bias=True)
        (nn_rescale): Linear(in_features=48, out_features=192, bias=True)
        (sparsemax): Sparsemax()
        (softmax): Softmax(dim=1)
      )
      (nn_inputse): Recalibration(
        (avg_pool): AdaptiveAvgPool1d(output_size=1)
        (nn_c): Linear(in_features=128, out_features=32, bias=True)
        (nn_rescale): Linear(in_features=32, out_features=128, bias=True)
        (sparsemax): Sparsemax()
        (softmax): Softmax(dim=1)
      )
      (rnn): GRU(320, 128)
      (nn_dropout): Dropout(p=0.5, inplace=False)
      (relu): ReLU()
      (sigmoid): Sigmoid()
      (tanh): Tanh()
    )
    (procedures): AdaCareLayer(
      (nn_conv1): CausalConv1d(128, 64, kernel_size=(2,), stride=(1,), padding=(1,))
      (nn_conv3): CausalConv1d(128, 64, kernel_size=(2,), stride=(1,), padding=(3,), dilation=(3,))
      (nn_conv5): CausalConv1d(128, 64, kernel_size=(2,), stride=(1,), padding=(5,), dilation=(5,))
      (nn_convse): Recalibration(
        (avg_pool): AdaptiveAvgPool1d(output_size=1)
        (nn_c): Linear(in_features=192, out_features=48, bias=True)
        (nn_rescale): Linear(in_features=48, out_features=192, bias=True)
        (sparsemax): Sparsemax()
        (softmax): Softmax(dim=1)
      )
      (nn_inputse): Recalibration(
        (avg_pool): AdaptiveAvgPool1d(output_size=1)
        (nn_c): Linear(in_features=128, out_features=32, bias=True)
        (nn_rescale): Linear(in_features=32, out_features=128, bias=True)
        (sparsemax): Sparsemax()
        (softmax): Softmax(dim=1)
      )
      (rnn): GRU(320, 128)
      (nn_dropout): Dropout(p=0.5, inplace=False)
      (relu): ReLU()
      (sigmoid): Sigmoid()
      (tanh): Tanh()
    )
  )
  (fc): Linear(in_features=256, out_features=1, bias=True)
)
2023-07-05 15:58:20 Metrics: ['accuracy', 'pr_auc', 'roc_auc', 'f1']
2023-07-05 15:58:20 Device: cuda
2023-07-05 15:58:20 
2023-07-05 15:58:20 Training:
2023-07-05 15:58:20 Batch size: 32
2023-07-05 15:58:20 Optimizer: <class 'torch.optim.adam.Adam'>
2023-07-05 15:58:20 Optimizer params: {'lr': 0.001}
2023-07-05 15:58:20 Weight decay: 0.0
2023-07-05 15:58:20 Max grad norm: None
…
2023-07-05 16:00:26 accuracy: 0.9207
2023-07-05 16:00:26 pr_auc: 0.0958
2023-07-05 16:00:26 roc_auc: 0.5937
2023-07-05 16:00:26 f1: 0.0256
2023-07-05 16:00:26 loss: 0.7899
2023-07-05 16:00:26 
2023-07-05 16:00:29 --- Train epoch-19, step-4880 ---
2023-07-05 16:00:29 loss: 0.0000
2023-07-05 16:00:29 --- Eval epoch-19, step-4880 ---
2023-07-05 16:00:29 accuracy: 0.9207
2023-07-05 16:00:29 pr_auc: 0.0960
2023-07-05 16:00:29 roc_auc: 0.5946
2023-07-05 16:00:29 f1: 0.0256
2023-07-05 16:00:29 loss: 0.7988
2023-07-05 16:00:29 Loaded best model
2023-07-05 16:00:36 AdaCare(
  (embeddings): ModuleDict(
    (conditions): Embedding(6664, 128, padding_idx=0)
    (procedures): Embedding(1980, 128, padding_idx=0)
  )
  (linear_layers): ModuleDict()
  (adacare): ModuleDict(
    (conditions): AdaCareLayer(
      (nn_conv1): CausalConv1d(128, 64, kernel_size=(2,), stride=(1,), padding=(1,))
      (nn_conv3): CausalConv1d(128, 64, kernel_size=(2,), stride=(1,), padding=(3,), dilation=(3,))
      (nn_conv5): CausalConv1d(128, 64, kernel_size=(2,), stride=(1,), padding=(5,), dilation=(5,))
      (nn_convse): Recalibration(
        (avg_pool): AdaptiveAvgPool1d(output_size=1)
        (nn_c): Linear(in_features=192, out_features=48, bias=True)
        (nn_rescale): Linear(in_features=48, out_features=192, bias=True)
        (sparsemax): Sparsemax()
        (softmax): Softmax(dim=1)
      )
      (nn_inputse): Recalibration(
        (avg_pool): AdaptiveAvgPool1d(output_size=1)
        (nn_c): Linear(in_features=128, out_features=32, bias=True)
        (nn_rescale): Linear(in_features=32, out_features=128, bias=True)
        (sparsemax): Sparsemax()
        (softmax): Softmax(dim=1)
      )
      (rnn): GRU(320, 128)
      (nn_dropout): Dropout(p=0.5, inplace=False)
      (relu): ReLU()
      (sigmoid): Sigmoid()
      (tanh): Tanh()
    )
    (procedures): AdaCareLayer(
      (nn_conv1): CausalConv1d(128, 64, kernel_size=(2,), stride=(1,), padding=(1,))
      (nn_conv3): CausalConv1d(128, 64, kernel_size=(2,), stride=(1,), padding=(3,), dilation=(3,))
      (nn_conv5): CausalConv1d(128, 64, kernel_size=(2,), stride=(1,), padding=(5,), dilation=(5,))
      (nn_convse): Recalibration(
        (avg_pool): AdaptiveAvgPool1d(output_size=1)
        (nn_c): Linear(in_features=192, out_features=48, bias=True)
        (nn_rescale): Linear(in_features=48, out_features=192, bias=True)
        (sparsemax): Sparsemax()
        (softmax): Softmax(dim=1)
      )
      (nn_inputse): Recalibration(
        (avg_pool): AdaptiveAvgPool1d(output_size=1)
        (nn_c): Linear(in_features=128, out_features=32, bias=True)
        (nn_rescale): Linear(in_features=32, out_features=128, bias=True)
        (sparsemax): Sparsemax()
        (softmax): Softmax(dim=1)
      )
      (rnn): GRU(320, 128)
      (nn_dropout): Dropout(p=0.5, inplace=False)
      (relu): ReLU()
      (sigmoid): Sigmoid()
      (tanh): Tanh()
    )
  )
  (fc): Linear(in_features=256, out_features=10, bias=True)
)
2023-07-05 16:00:36 Metrics: ['accuracy', 'f1_macro', 'roc_auc_weighted_ovo']
2023-07-05 16:00:36 Device: cuda
2023-07-05 16:00:36 
2023-07-05 16:00:36 Training:
2023-07-05 16:00:36 Batch size: 32
2023-07-05 16:00:36 Optimizer: <class 'torch.optim.adam.Adam'>
2023-07-05 16:00:36 Optimizer params: {'lr': 0.001}
2023-07-05 16:00:36 Weight decay: 0.0
2023-07-05 16:00:36 Max grad norm: None
…
2023-07-05 16:05:12 --- Eval epoch-18, step-21071 ---
2023-07-05 16:05:12 accuracy: 0.3392
2023-07-05 16:05:12 f1_macro: 0.2550
2023-07-05 16:05:12 roc_auc_weighted_ovo: 0.7499
2023-07-05 16:05:12 loss: 3.3804
2023-07-05 16:05:12 
2023-07-05 16:05:25 --- Train epoch-19, step-22180 ---
2023-07-05 16:05:25 loss: 0.5026
2023-07-05 16:05:26 --- Eval epoch-19, step-22180 ---
2023-07-05 16:05:26 accuracy: 0.3463
2023-07-05 16:05:26 f1_macro: 0.2488
2023-07-05 16:05:26 roc_auc_weighted_ovo: 0.7492
2023-07-05 16:05:26 loss: 3.4642
2023-07-05 16:05:26 Loaded best model
2023-07-05 16:05:28 Transformer(
  (embeddings): ModuleDict(
    (conditions): Embedding(4031, 128, padding_idx=0)
    (procedures): Embedding(1276, 128, padding_idx=0)
  )
  (linear_layers): ModuleDict()
  (transformer): ModuleDict(
    (conditions): TransformerLayer(
      (transformer): ModuleList(
        (0): TransformerBlock(
          (attention): MultiHeadedAttention(
            (linear_layers): ModuleList(
              (0): Linear(in_features=128, out_features=128, bias=False)
              (1): Linear(in_features=128, out_features=128, bias=False)
              (2): Linear(in_features=128, out_features=128, bias=False)
            )
            (output_linear): Linear(in_features=128, out_features=128, bias=False)
            (attention): Attention()
            (dropout): Dropout(p=0.1, inplace=False)
          )
          (feed_forward): PositionwiseFeedForward(
            (w_1): Linear(in_features=128, out_features=512, bias=True)
            (w_2): Linear(in_features=512, out_features=128, bias=True)
            (dropout): Dropout(p=0.5, inplace=False)
            (activation): GELU(approximate=none)
          )
          (input_sublayer): SublayerConnection(
            (norm): LayerNorm((128,), eps=1e-05, elementwise_affine=True)
            (dropout): Dropout(p=0.5, inplace=False)
          )
          (output_sublayer): SublayerConnection(
            (norm): LayerNorm((128,), eps=1e-05, elementwise_affine=True)
            (dropout): Dropout(p=0.5, inplace=False)
          )
          (dropout): Dropout(p=0.5, inplace=False)
        )
      )
    )
    (procedures): TransformerLayer(
      (transformer): ModuleList(
        (0): TransformerBlock(
          (attention): MultiHeadedAttention(
            (linear_layers): ModuleList(
              (0): Linear(in_features=128, out_features=128, bias=False)
              (1): Linear(in_features=128, out_features=128, bias=False)
              (2): Linear(in_features=128, out_features=128, bias=False)
            )
            (output_linear): Linear(in_features=128, out_features=128, bias=False)
            (attention): Attention()
            (dropout): Dropout(p=0.1, inplace=False)
          )
          (feed_forward): PositionwiseFeedForward(
            (w_1): Linear(in_features=128, out_features=512, bias=True)
            (w_2): Linear(in_features=512, out_features=128, bias=True)
            (dropout): Dropout(p=0.5, inplace=False)
            (activation): GELU(approximate=none)
          )
          (input_sublayer): SublayerConnection(
            (norm): LayerNorm((128,), eps=1e-05, elementwise_affine=True)
            (dropout): Dropout(p=0.5, inplace=False)
          )
          (output_sublayer): SublayerConnection(
            (norm): LayerNorm((128,), eps=1e-05, elementwise_affine=True)
            (dropout): Dropout(p=0.5, inplace=False)
          )
          (dropout): Dropout(p=0.5, inplace=False)
        )
      )
    )
  )
  (fc): Linear(in_features=256, out_features=1, bias=True)
)
2023-07-05 16:05:28 Metrics: ['accuracy', 'pr_auc', 'roc_auc', 'f1']
2023-07-05 16:05:28 Device: cuda
2023-07-05 16:05:28 
2023-07-05 16:05:28 Training:
2023-07-05 16:05:28 Batch size: 32
2023-07-05 16:05:28 Optimizer: <class 'torch.optim.adam.Adam'>
2023-07-05 16:05:28 Optimizer params: {'lr': 0.001}
2023-07-05 16:05:28 Weight decay: 0.0
2023-07-05 16:05:28 Max grad norm: None
…
2023-07-05 16:07:07 accuracy: 0.9152
2023-07-05 16:07:07 pr_auc: 0.0772
2023-07-05 16:07:07 roc_auc: 0.5621
2023-07-05 16:07:07 f1: 0.0460
2023-07-05 16:07:07 loss: 1.2463
2023-07-05 16:07:07 
2023-07-05 16:07:09 --- Train epoch-19, step-4820 ---
2023-07-05 16:07:09 loss: 0.0215
2023-07-05 16:07:09 --- Eval epoch-19, step-4820 ---
2023-07-05 16:07:09 accuracy: 0.9111
2023-07-05 16:07:09 pr_auc: 0.0758
2023-07-05 16:07:09 roc_auc: 0.5515
2023-07-05 16:07:09 f1: 0.0645
2023-07-05 16:07:09 loss: 1.5343
2023-07-05 16:07:09 Loaded best model
2023-07-05 16:07:15 Transformer(
  (embeddings): ModuleDict(
    (conditions): Embedding(6664, 128, padding_idx=0)
    (procedures): Embedding(1980, 128, padding_idx=0)
  )
  (linear_layers): ModuleDict()
  (transformer): ModuleDict(
    (conditions): TransformerLayer(
      (transformer): ModuleList(
        (0): TransformerBlock(
          (attention): MultiHeadedAttention(
            (linear_layers): ModuleList(
              (0): Linear(in_features=128, out_features=128, bias=False)
              (1): Linear(in_features=128, out_features=128, bias=False)
              (2): Linear(in_features=128, out_features=128, bias=False)
            )
            (output_linear): Linear(in_features=128, out_features=128, bias=False)
            (attention): Attention()
            (dropout): Dropout(p=0.1, inplace=False)
          )
          (feed_forward): PositionwiseFeedForward(
            (w_1): Linear(in_features=128, out_features=512, bias=True)
            (w_2): Linear(in_features=512, out_features=128, bias=True)
            (dropout): Dropout(p=0.5, inplace=False)
            (activation): GELU(approximate=none)
          )
          (input_sublayer): SublayerConnection(
            (norm): LayerNorm((128,), eps=1e-05, elementwise_affine=True)
            (dropout): Dropout(p=0.5, inplace=False)
          )
          (output_sublayer): SublayerConnection(
            (norm): LayerNorm((128,), eps=1e-05, elementwise_affine=True)
            (dropout): Dropout(p=0.5, inplace=False)
          )
          (dropout): Dropout(p=0.5, inplace=False)
        )
      )
    )
    (procedures): TransformerLayer(
      (transformer): ModuleList(
        (0): TransformerBlock(
          (attention): MultiHeadedAttention(
            (linear_layers): ModuleList(
              (0): Linear(in_features=128, out_features=128, bias=False)
              (1): Linear(in_features=128, out_features=128, bias=False)
              (2): Linear(in_features=128, out_features=128, bias=False)
            )
            (output_linear): Linear(in_features=128, out_features=128, bias=False)
            (attention): Attention()
            (dropout): Dropout(p=0.1, inplace=False)
          )
          (feed_forward): PositionwiseFeedForward(
            (w_1): Linear(in_features=128, out_features=512, bias=True)
            (w_2): Linear(in_features=512, out_features=128, bias=True)
            (dropout): Dropout(p=0.5, inplace=False)
            (activation): GELU(approximate=none)
          )
          (input_sublayer): SublayerConnection(
            (norm): LayerNorm((128,), eps=1e-05, elementwise_affine=True)
            (dropout): Dropout(p=0.5, inplace=False)
          )
          (output_sublayer): SublayerConnection(
            (norm): LayerNorm((128,), eps=1e-05, elementwise_affine=True)
            (dropout): Dropout(p=0.5, inplace=False)
          )
          (dropout): Dropout(p=0.5, inplace=False)
        )
      )
    )
  )
  (fc): Linear(in_features=256, out_features=10, bias=True)
)
2023-07-05 16:07:15 Metrics: ['accuracy', 'f1_macro', 'roc_auc_weighted_ovo']
2023-07-05 16:07:15 Device: cuda
2023-07-05 16:07:15 
2023-07-05 16:07:15 Training:
2023-07-05 16:07:15 Batch size: 32
2023-07-05 16:07:15 Optimizer: <class 'torch.optim.adam.Adam'>
2023-07-05 16:07:15 Optimizer params: {'lr': 0.001}
2023-07-05 16:07:15 Weight decay: 0.0
2023-07-05 16:07:15 Max grad norm: None
…
          (sigmoid): Sigmoid()
          (relu): ReLU()
        )
        (125): SingleAttention(
          (tanh): Tanh()
          (softmax): Softmax(dim=1)
          (sigmoid): Sigmoid()
          (relu): ReLU()
        )
        (126): SingleAttention(
          (tanh): Tanh()
          (softmax): Softmax(dim=1)
          (sigmoid): Sigmoid()
          (relu): ReLU()
        )
        (127): SingleAttention(
          (tanh): Tanh()
          (softmax): Softmax(dim=1)
          (sigmoid): Sigmoid()
          (relu): ReLU()
        )
      )
      (FinalAttentionQKV): FinalAttentionQKV(
        (W_q): Linear(in_features=128, out_features=128, bias=True)
        (W_k): Linear(in_features=128, out_features=128, bias=True)
        (W_v): Linear(in_features=128, out_features=128, bias=True)
        (W_out): Linear(in_features=128, out_features=1, bias=True)
        (dropout): Dropout(p=0.5, inplace=False)
        (tanh): Tanh()
        (softmax): Softmax(dim=1)
        (sigmoid): Sigmoid()
      )
      (MultiHeadedAttention): MultiHeadedAttention(
        (linears): ModuleList(
          (0): Linear(in_features=128, out_features=128, bias=True)
          (1): Linear(in_features=128, out_features=128, bias=True)
          (2): Linear(in_features=128, out_features=128, bias=True)
        )
        (final_linear): Linear(in_features=128, out_features=128, bias=True)
        (dropout): Dropout(p=0.5, inplace=False)
      )
      (SublayerConnection): SublayerConnection(
        (norm): LayerNorm()
        (dropout): Dropout(p=0.5, inplace=False)
      )
      (PositionwiseFeedForward): PositionwiseFeedForward(
        (w_1): Linear(in_features=128, out_features=64, bias=True)
        (w_2): Linear(in_features=64, out_features=128, bias=True)
        (dropout): Dropout(p=0.1, inplace=False)
      )
      (dropout): Dropout(p=0.5, inplace=False)
      (tanh): Tanh()
      (softmax): Softmax(dim=None)
      (sigmoid): Sigmoid()
      (relu): ReLU()
    )
    (procedures): ConCareLayer(
      (PositionalEncoding): PositionalEncoding(
        (dropout): Dropout(p=0, inplace=False)
      )
      (GRUs): ModuleList(
…
          (sigmoid): Sigmoid()
          (relu): ReLU()
        )
        (125): SingleAttention(
          (tanh): Tanh()
          (softmax): Softmax(dim=1)
          (sigmoid): Sigmoid()
          (relu): ReLU()
        )
        (126): SingleAttention(
          (tanh): Tanh()
          (softmax): Softmax(dim=1)
          (sigmoid): Sigmoid()
          (relu): ReLU()
        )
        (127): SingleAttention(
          (tanh): Tanh()
          (softmax): Softmax(dim=1)
          (sigmoid): Sigmoid()
          (relu): ReLU()
        )
      )
      (FinalAttentionQKV): FinalAttentionQKV(
        (W_q): Linear(in_features=128, out_features=128, bias=True)
        (W_k): Linear(in_features=128, out_features=128, bias=True)
        (W_v): Linear(in_features=128, out_features=128, bias=True)
        (W_out): Linear(in_features=128, out_features=1, bias=True)
        (dropout): Dropout(p=0.5, inplace=False)
        (tanh): Tanh()
        (softmax): Softmax(dim=1)
        (sigmoid): Sigmoid()
      )
      (MultiHeadedAttention): MultiHeadedAttention(
        (linears): ModuleList(
          (0): Linear(in_features=128, out_features=128, bias=True)
          (1): Linear(in_features=128, out_features=128, bias=True)
          (2): Linear(in_features=128, out_features=128, bias=True)
        )
        (final_linear): Linear(in_features=128, out_features=128, bias=True)
        (dropout): Dropout(p=0.5, inplace=False)
      )
      (SublayerConnection): SublayerConnection(
        (norm): LayerNorm()
        (dropout): Dropout(p=0.5, inplace=False)
      )
      (PositionwiseFeedForward): PositionwiseFeedForward(
        (w_1): Linear(in_features=128, out_features=64, bias=True)
        (w_2): Linear(in_features=64, out_features=128, bias=True)
        (dropout): Dropout(p=0.1, inplace=False)
      )
      (dropout): Dropout(p=0.5, inplace=False)
      (tanh): Tanh()
      (softmax): Softmax(dim=None)
      (sigmoid): Sigmoid()
      (relu): ReLU()
    )
  )
  (fc): Linear(in_features=256, out_features=1, bias=True)
)
2023-07-05 16:14:46 Metrics: ['accuracy', 'pr_auc', 'roc_auc', 'f1']
2023-07-05 16:14:46 Device: cuda
2023-07-05 16:14:46 
2023-07-05 16:14:46 Training:
2023-07-05 16:14:46 Batch size: 32
2023-07-05 16:14:46 Optimizer: <class 'torch.optim.adam.Adam'>
2023-07-05 16:14:46 Optimizer params: {'lr': 0.001}
2023-07-05 16:14:46 Weight decay: 0.0
2023-07-05 16:14:46 Max grad norm: None
…
          (sigmoid): Sigmoid()
          (relu): ReLU()
        )
        (125): SingleAttention(
          (tanh): Tanh()
          (softmax): Softmax(dim=1)
          (sigmoid): Sigmoid()
          (relu): ReLU()
        )
        (126): SingleAttention(
          (tanh): Tanh()
          (softmax): Softmax(dim=1)
          (sigmoid): Sigmoid()
          (relu): ReLU()
        )
        (127): SingleAttention(
          (tanh): Tanh()
          (softmax): Softmax(dim=1)
          (sigmoid): Sigmoid()
          (relu): ReLU()
        )
      )
      (FinalAttentionQKV): FinalAttentionQKV(
        (W_q): Linear(in_features=128, out_features=128, bias=True)
        (W_k): Linear(in_features=128, out_features=128, bias=True)
        (W_v): Linear(in_features=128, out_features=128, bias=True)
        (W_out): Linear(in_features=128, out_features=1, bias=True)
        (dropout): Dropout(p=0.5, inplace=False)
        (tanh): Tanh()
        (softmax): Softmax(dim=1)
        (sigmoid): Sigmoid()
      )
      (MultiHeadedAttention): MultiHeadedAttention(
        (linears): ModuleList(
          (0): Linear(in_features=128, out_features=128, bias=True)
          (1): Linear(in_features=128, out_features=128, bias=True)
          (2): Linear(in_features=128, out_features=128, bias=True)
        )
        (final_linear): Linear(in_features=128, out_features=128, bias=True)
        (dropout): Dropout(p=0.5, inplace=False)
      )
      (SublayerConnection): SublayerConnection(
        (norm): LayerNorm()
        (dropout): Dropout(p=0.5, inplace=False)
      )
      (PositionwiseFeedForward): PositionwiseFeedForward(
        (w_1): Linear(in_features=128, out_features=64, bias=True)
        (w_2): Linear(in_features=64, out_features=128, bias=True)
        (dropout): Dropout(p=0.1, inplace=False)
      )
      (dropout): Dropout(p=0.5, inplace=False)
      (tanh): Tanh()
      (softmax): Softmax(dim=None)
      (sigmoid): Sigmoid()
      (relu): ReLU()
    )
  )
  (fc): Linear(in_features=256, out_features=10, bias=True)
)
2023-07-05 18:42:15 Metrics: ['accuracy', 'f1_macro', 'roc_auc_weighted_ovo']
2023-07-05 18:42:15 Device: cuda
2023-07-05 18:42:15 
2023-07-05 18:42:15 Training:
2023-07-05 18:42:15 Batch size: 32
2023-07-05 18:42:15 Optimizer: <class 'torch.optim.adam.Adam'>
2023-07-05 18:42:15 Optimizer params: {'lr': 0.001}
2023-07-05 18:42:15 Weight decay: 0.0
2023-07-05 18:42:15 Max grad norm: None
…
            (relu): ReLU()
          )
          (125): SingleAttention(
            (tanh): Tanh()
            (softmax): Softmax(dim=1)
            (sigmoid): Sigmoid()
            (relu): ReLU()
          )
          (126): SingleAttention(
            (tanh): Tanh()
            (softmax): Softmax(dim=1)
            (sigmoid): Sigmoid()
            (relu): ReLU()
          )
          (127): SingleAttention(
            (tanh): Tanh()
            (softmax): Softmax(dim=1)
            (sigmoid): Sigmoid()
            (relu): ReLU()
          )
        )
        (FinalAttentionQKV): FinalAttentionQKV(
          (W_q): Linear(in_features=128, out_features=128, bias=True)
          (W_k): Linear(in_features=128, out_features=128, bias=True)
          (W_v): Linear(in_features=128, out_features=128, bias=True)
          (W_out): Linear(in_features=128, out_features=1, bias=True)
          (dropout): Dropout(p=0, inplace=False)
          (tanh): Tanh()
          (softmax): Softmax(dim=1)
          (sigmoid): Sigmoid()
        )
        (MultiHeadedAttention): MultiHeadedAttention(
          (linears): ModuleList(
            (0): Linear(in_features=128, out_features=128, bias=True)
            (1): Linear(in_features=128, out_features=128, bias=True)
            (2): Linear(in_features=128, out_features=128, bias=True)
          )
          (final_linear): Linear(in_features=128, out_features=128, bias=True)
          (dropout): Dropout(p=0, inplace=False)
        )
        (SublayerConnection): SublayerConnection(
          (norm): LayerNorm()
          (dropout): Dropout(p=0, inplace=False)
        )
        (PositionwiseFeedForward): PositionwiseFeedForward(
          (w_1): Linear(in_features=128, out_features=64, bias=True)
          (w_2): Linear(in_features=64, out_features=128, bias=True)
          (dropout): Dropout(p=0.1, inplace=False)
        )
        (dropout): Dropout(p=0, inplace=False)
        (tanh): Tanh()
        (softmax): Softmax(dim=None)
        (sigmoid): Sigmoid()
        (relu): ReLU()
      )
      (relu): ReLU()
      (tanh): Tanh()
      (sigmoid): Sigmoid()
      (dropout): Dropout(p=0.5, inplace=False)
      (weight1): Linear(in_features=128, out_features=1, bias=True)
      (weight2): Linear(in_features=128, out_features=1, bias=True)
      (GCN): GraphConvolution()
      (GCN_2): GraphConvolution()
      (bn): BatchNorm1d(128, eps=1e-05, momentum=0.1, affine=True, track_running_stats=True)
    )
    (procedures): GRASPLayer(
      (backbone): ConCareLayer(
        (PositionalEncoding): PositionalEncoding(
          (dropout): Dropout(p=0, inplace=False)
        )
        (GRUs): ModuleList(
          (0): GRU(1, 128, batch_first=True)
          (1): GRU(1, 128, batch_first=True)
          (2): GRU(1, 128, batch_first=True)
…
            (relu): ReLU()
          )
          (125): SingleAttention(
            (tanh): Tanh()
            (softmax): Softmax(dim=1)
            (sigmoid): Sigmoid()
            (relu): ReLU()
          )
          (126): SingleAttention(
            (tanh): Tanh()
            (softmax): Softmax(dim=1)
            (sigmoid): Sigmoid()
            (relu): ReLU()
          )
          (127): SingleAttention(
            (tanh): Tanh()
            (softmax): Softmax(dim=1)
            (sigmoid): Sigmoid()
            (relu): ReLU()
          )
        )
        (FinalAttentionQKV): FinalAttentionQKV(
          (W_q): Linear(in_features=128, out_features=128, bias=True)
          (W_k): Linear(in_features=128, out_features=128, bias=True)
          (W_v): Linear(in_features=128, out_features=128, bias=True)
          (W_out): Linear(in_features=128, out_features=1, bias=True)
          (dropout): Dropout(p=0, inplace=False)
          (tanh): Tanh()
          (softmax): Softmax(dim=1)
          (sigmoid): Sigmoid()
        )
        (MultiHeadedAttention): MultiHeadedAttention(
          (linears): ModuleList(
            (0): Linear(in_features=128, out_features=128, bias=True)
            (1): Linear(in_features=128, out_features=128, bias=True)
            (2): Linear(in_features=128, out_features=128, bias=True)
          )
          (final_linear): Linear(in_features=128, out_features=128, bias=True)
          (dropout): Dropout(p=0, inplace=False)
        )
        (SublayerConnection): SublayerConnection(
          (norm): LayerNorm()
          (dropout): Dropout(p=0, inplace=False)
        )
        (PositionwiseFeedForward): PositionwiseFeedForward(
          (w_1): Linear(in_features=128, out_features=64, bias=True)
          (w_2): Linear(in_features=64, out_features=128, bias=True)
          (dropout): Dropout(p=0.1, inplace=False)
        )
        (dropout): Dropout(p=0, inplace=False)
        (tanh): Tanh()
        (softmax): Softmax(dim=None)
        (sigmoid): Sigmoid()
        (relu): ReLU()
      )
      (relu): ReLU()
      (tanh): Tanh()
      (sigmoid): Sigmoid()
      (dropout): Dropout(p=0.5, inplace=False)
      (weight1): Linear(in_features=128, out_features=1, bias=True)
      (weight2): Linear(in_features=128, out_features=1, bias=True)
      (GCN): GraphConvolution()
      (GCN_2): GraphConvolution()
      (bn): BatchNorm1d(128, eps=1e-05, momentum=0.1, affine=True, track_running_stats=True)
    )
  )
  (fc): Linear(in_features=256, out_features=1, bias=True)
)
2023-07-06 00:29:59 Metrics: ['accuracy', 'pr_auc', 'roc_auc', 'f1']
2023-07-06 00:29:59 Device: cuda
2023-07-06 00:29:59 
2023-07-06 00:29:59 Training:
2023-07-06 00:29:59 Batch size: 32
2023-07-06 00:29:59 Optimizer: <class 'torch.optim.adam.Adam'>
2023-07-06 00:29:59 Optimizer params: {'lr': 0.001}
2023-07-06 00:29:59 Weight decay: 0.0
2023-07-06 00:29:59 Max grad norm: None
…
            (relu): ReLU()
          )
          (125): SingleAttention(
            (tanh): Tanh()
            (softmax): Softmax(dim=1)
            (sigmoid): Sigmoid()
            (relu): ReLU()
          )
          (126): SingleAttention(
            (tanh): Tanh()
            (softmax): Softmax(dim=1)
            (sigmoid): Sigmoid()
            (relu): ReLU()
          )
          (127): SingleAttention(
            (tanh): Tanh()
            (softmax): Softmax(dim=1)
            (sigmoid): Sigmoid()
            (relu): ReLU()
          )
        )
        (FinalAttentionQKV): FinalAttentionQKV(
          (W_q): Linear(in_features=128, out_features=128, bias=True)
          (W_k): Linear(in_features=128, out_features=128, bias=True)
          (W_v): Linear(in_features=128, out_features=128, bias=True)
          (W_out): Linear(in_features=128, out_features=1, bias=True)
          (dropout): Dropout(p=0, inplace=False)
          (tanh): Tanh()
          (softmax): Softmax(dim=1)
          (sigmoid): Sigmoid()
        )
        (MultiHeadedAttention): MultiHeadedAttention(
          (linears): ModuleList(
            (0): Linear(in_features=128, out_features=128, bias=True)
            (1): Linear(in_features=128, out_features=128, bias=True)
            (2): Linear(in_features=128, out_features=128, bias=True)
          )
          (final_linear): Linear(in_features=128, out_features=128, bias=True)
          (dropout): Dropout(p=0, inplace=False)
        )
        (SublayerConnection): SublayerConnection(
          (norm): LayerNorm()
          (dropout): Dropout(p=0, inplace=False)
        )
        (PositionwiseFeedForward): PositionwiseFeedForward(
          (w_1): Linear(in_features=128, out_features=64, bias=True)
          (w_2): Linear(in_features=64, out_features=128, bias=True)
          (dropout): Dropout(p=0.1, inplace=False)
        )
        (dropout): Dropout(p=0, inplace=False)
        (tanh): Tanh()
        (softmax): Softmax(dim=None)
        (sigmoid): Sigmoid()
        (relu): ReLU()
      )
      (relu): ReLU()
      (tanh): Tanh()
      (sigmoid): Sigmoid()
      (dropout): Dropout(p=0.5, inplace=False)
      (weight1): Linear(in_features=128, out_features=1, bias=True)
      (weight2): Linear(in_features=128, out_features=1, bias=True)
      (GCN): GraphConvolution()
      (GCN_2): GraphConvolution()
      (bn): BatchNorm1d(128, eps=1e-05, momentum=0.1, affine=True, track_running_stats=True)
    )
  )
  (fc): Linear(in_features=256, out_features=10, bias=True)
)
2023-07-06 02:45:03 Metrics: ['accuracy', 'f1_macro', 'roc_auc_weighted_ovo']
2023-07-06 02:45:03 Device: cuda
2023-07-06 02:45:03 
2023-07-06 02:45:03 Training:
2023-07-06 02:45:03 Batch size: 32
2023-07-06 02:45:03 Optimizer: <class 'torch.optim.adam.Adam'>
2023-07-06 02:45:03 Optimizer params: {'lr': 0.001}
2023-07-06 02:45:03 Weight decay: 0.0
2023-07-06 02:45:03 Max grad norm: None
…
2023-07-06 07:35:56 --- Eval epoch-18, step-21109 ---
2023-07-06 07:35:56 accuracy: 0.2767
2023-07-06 07:35:56 f1_macro: 0.1213
2023-07-06 07:35:56 roc_auc_weighted_ovo: 0.6564
2023-07-06 07:35:56 loss: 1.9826
2023-07-06 07:35:56 
2023-07-06 07:50:45 --- Train epoch-19, step-22220 ---
2023-07-06 07:50:45 loss: 1.7579
2023-07-06 07:51:21 --- Eval epoch-19, step-22220 ---
2023-07-06 07:51:21 accuracy: 0.3816
2023-07-06 07:51:21 f1_macro: 0.2078
2023-07-06 07:51:21 roc_auc_weighted_ovo: 0.7657
2023-07-06 07:51:21 loss: 1.7120
2023-07-06 07:51:21 Loaded best model
2023-07-06 07:51:23 Deepr(
  (embeddings): ModuleDict(
    (conditions): Embedding(4032, 128, padding_idx=0)
    (procedures): Embedding(1277, 128, padding_idx=0)
  )
  (linear_layers): ModuleDict()
  (cnn): ModuleDict(
    (conditions): DeeprLayer(
      (conv): Conv1d(128, 128, kernel_size=(3,), stride=(1,))
    )
    (procedures): DeeprLayer(
      (conv): Conv1d(128, 128, kernel_size=(3,), stride=(1,))
    )
  )
  (fc): Linear(in_features=256, out_features=1, bias=True)
)
2023-07-06 07:51:23 Metrics: ['accuracy', 'pr_auc', 'roc_auc', 'f1']
2023-07-06 07:51:23 Device: cuda
2023-07-06 07:51:23 
2023-07-06 07:51:23 Training:
2023-07-06 07:51:23 Batch size: 32
2023-07-06 07:51:23 Optimizer: <class 'torch.optim.adam.Adam'>
2023-07-06 07:51:23 Optimizer params: {'lr': 0.001}
2023-07-06 07:51:23 Weight decay: 0.0
2023-07-06 07:51:23 Max grad norm: None
…
2023-07-06 07:52:07 accuracy: 0.9238
2023-07-06 07:52:07 pr_auc: 0.1158
2023-07-06 07:52:07 roc_auc: 0.5568
2023-07-06 07:52:07 f1: 0.0278
2023-07-06 07:52:07 loss: 0.7038
2023-07-06 07:52:07 
2023-07-06 07:52:08 --- Train epoch-19, step-4880 ---
2023-07-06 07:52:08 loss: 0.0001
2023-07-06 07:52:09 --- Eval epoch-19, step-4880 ---
2023-07-06 07:52:09 accuracy: 0.9238
2023-07-06 07:52:09 pr_auc: 0.1168
2023-07-06 07:52:09 roc_auc: 0.5576
2023-07-06 07:52:09 f1: 0.0278
2023-07-06 07:52:09 loss: 0.7109
2023-07-06 07:52:09 Loaded best model
2023-07-06 07:52:16 Deepr(
  (embeddings): ModuleDict(
    (conditions): Embedding(6665, 128, padding_idx=0)
    (procedures): Embedding(1981, 128, padding_idx=0)
  )
  (linear_layers): ModuleDict()
  (cnn): ModuleDict(
    (conditions): DeeprLayer(
      (conv): Conv1d(128, 128, kernel_size=(3,), stride=(1,))
    )
    (procedures): DeeprLayer(
      (conv): Conv1d(128, 128, kernel_size=(3,), stride=(1,))
    )
  )
  (fc): Linear(in_features=256, out_features=10, bias=True)
)
2023-07-06 07:52:16 Metrics: ['accuracy', 'f1_macro', 'roc_auc_weighted_ovo']
2023-07-06 07:52:16 Device: cuda
2023-07-06 07:52:16 
2023-07-06 07:52:16 Training:
2023-07-06 07:52:16 Batch size: 32
2023-07-06 07:52:16 Optimizer: <class 'torch.optim.adam.Adam'>
2023-07-06 07:52:16 Optimizer params: {'lr': 0.001}
2023-07-06 07:52:16 Weight decay: 0.0
2023-07-06 07:52:16 Max grad norm: None
…
